project1/BpNet_model.pkl (torch, 2583 bytes, 6 tensors)

0.weight f4 [5, 5]
000000 08 c1 d6 3e d8 66 7f 3e 01 9c 81 bf 55 fe 87 bf
       0.41944146 0.24941576 -1.0125734 -1.0624491
000010 5c ba 4d 3f 99 44 ca 3e 45 6e 28 be 3c 33 96 bf
       0.80362487 0.3950546 -0.16448314 -1.1734385
000020 4c 8e 5d bf f3 1d 5d be 00 c2 96 bb c6 28 97 3e
       -0.8654525 -0.21593456 -0.0046007633 0.29523295
000030 f0 77 9d 3c 6d b5 ba be 52 3d 35 be 14 50 a1 bf
       0.01922223 -0.36466542 -0.17699173 -1.2602563
000040 22 88 3f 3f 1e 41 e6 be a0 48 22 3f bf 27 6f 3f
       0.748171 -0.44971555 0.63392067 0.9342002
000050 90 dd 98 3e fb 78 8a be 0d bd e5 3e 4d 82 68 3e
       0.2985654 -0.27045426 0.44870797 0.22705956
000060 a9 99 c0 bf
       -1.5046893

0.bias f4 [5]
000000 e4 84 b2 be 2c 6d a7 3e 9c 78 96 be 28 d3 96 3e
       -0.34867013 0.3270048 -0.29388893 0.29457974
000010 f9 ce 04 3f
       0.51878315

2.weight f4 [12, 5]
000000 bc b6 42 be 7e bb b1 bf 90 49 21 3d c1 e4 ec 3e
       -0.1901502 -1.3885343 0.039376795 0.46268275
000010 b2 20 22 bf 94 52 ac 3f 61 48 0d be 18 71 2d 3d
       -0.6333114 1.3462701 -0.13797142 0.042344183
000020 16 25 7e 3f a4 69 d0 bf 76 24 07 c0 3e 5e 07 bf
       0.9927534 -1.6282239 -2.1116004 -0.5287818
000030 d0 8f 75 bd 82 d3 04 be cf 71 58 3f ae 07 0e be
       -0.059951603 -0.12971309 0.8454866 -0.13870117
000040 54 a4 65 3e ea 91 93 3e 11 37 c5 be a2 c7 25 be
       0.22425967 0.2882226 -0.38518575 -0.16189435
000050 a3 7a 76 be 41 37 2d bf c0 b4 bf 3c 6b 61 85 3f
       -0.2407022 -0.67662436 0.023401618 1.0420355
000060 8e 2c 52 bf 2d 4e 9c be e3 f6 9e 3e 4c 67 a3 3e
       -0.82099235 -0.30528393 0.31047735 0.31914747
000070 2e e7 dc be e6 b5 d5 be d7 2a aa 3d 05 b9 47 bf
       -0.43145126 -0.4174034 0.08308952 -0.7801669
000080 80 32 a0 be 0e 89 ef 3e ee 36 44 bd 9a 5a 24 3f
       -0.31288528 0.46784252 -0.047903948 0.64200747
000090 56 a3 49 3e 60 4e 3e bc 50 fc 19 3f 55 fd ae bf
       0.19691214 -0.011615366 0.60150623 -1.3671061
0000a0 68 bd 43 3f d0 2d 74 be f8 98 1f be 42 27 03 3f
       0.76460886 -0.23845601 -0.15585697 0.5123178
0000b0 65 50 e7 bf 16 da 4d be 34 a6 1b be 2c 51 07 3e
       -1.807141 -0.20102724 -0.1520012 0.13214558
0000c0 d4 17 db bd d7 d8 b6 be 03 4d ee bf 96 51 06 3e
       -0.10697904 -0.3571231 -1.8617252 0.1311706
0000d0 94 73 db be fd e2 53 bf b7 56 9b 3e 3e fc cd be
       -0.42861617 -0.8276823 0.30339596 -0.40231508
0000e0 5c 46 23 3f 04 10 1d 3e ce 29 3d bf 6e 66 bf 3e
       0.63779235 0.1533814 -0.73891914 0.37382835

2.bias f4 [12]
000000 03 20 ea 3e 17 ad 5b bc 71 68 1d 3f 6c b7 d4 be
       0.45727548 -0.013407967 0.6148749 -0.4154619
000010 7a 71 d5 be b0 9a c0 be 64 ff 96 3e f8 5f 04 3f
       -0.41688138 -0.37618017 0.29491723 0.51708937
000020 1a 45 a5 3e 1c 7a a8 bd fd 04 c4 be 0a e8 b6 be
       0.32279283 -0.082264155 -0.38285056 -0.35723907

4.weight f4 [4, 12]
000000 f1 e5 1f bd 25 ed 31 3f 9c 24 9f 3e 94 75 52 be
       -0.03903765 0.6950248 0.31082618 -0.20552665
000010 57 39 35 bf da 1c 5a 3d ec 67 60 bd d8 d7 d7 3e
       -0.7079062 0.05325017 -0.054786608 0.42156863
000020 73 bf 4c 3f 1e 2f 8c be 5b cf b7 be 37 b3 13 bf
       0.7997963 -0.27379698 -0.35900387 -0.57695335
000030 2b 7e f8 bd 5a 8d ae 3e 99 c6 00 c0 c1 e5 84 be
       -0.1213344 0.34092218 -2.0121214 -0.25956538
000040 03 56 0e c0 a4 51 ab 3d d0 2c fa be 52 d4 7f 3f
       -2.2239997 0.08365181 -0.48862314 0.9993335
000050 2f 46 8a 3f 6e e0 88 be b4 fe fb bf 54 ef 90 bd
       1.0802668 -0.26733726 -1.9687104 -0.07076898
000060 41 22 41 3f e4 6c cc 3e a8 02 2a 3f bf 11 8b be
       0.7544289 0.39926827 0.66410303 -0.27161977
000070 6d 75 07 3e 03 53 91 3d b6 8f ad 3e 02 39 0b bf
       0.13228388 0.07095911 0.33898705 -0.5438386
000080 9e 07 f6 3e 20 04 0b bd 77 a9 ba bf 33 bc ba be
       0.48052686 -0.03393948 -1.4582967 -0.3647171
000090 f8 cf 8b be 67 22 8a 3f 23 0a d4 bf e3 de 11 be
       -0.27307105 1.0791749 -1.6565593 -0.14245181
0000a0 7c a4 50 c0 2f b5 04 bc 45 cd 21 3e 2c d0 93 3f
       -3.2600393 -0.008099838 0.1580096 1.1547904
0000b0 b5 6f 90 3f fc 64 2b be 33 cb 03 c0 99 8d 81 3d
       1.128409 -0.16737741 -2.0592773 0.06325836

4.bias f4 [4]
000000 3c 7d 86 be 64 11 65 3f 02 2f c7 be 4a 31 cd 3e
       -0.2626742 0.8947966 -0.38903052 0.40076667
